checkpoint.pth (torch_old, 78282 bytes, 8 tensors)

fc1.weight f4 [64, 37]
0.21683657 0.09302709 0.07104084 0.08081001 -0.08968381 0.11264717 0.27424538 -0.17298533
-0.072978765 -0.70712405 0.15063588 0.06602448 0.14885136 0.15011166 -0.004310099 0.06832618
0.09646716 0.024852663 -0.024539141 0.04174919 -0.017842993 0.04840101 0.025740128 0.039791647
0.019429723 -0.011287015 0.05856503 -0.120916635 -0.081177846 -0.2460511 0.31457138 -0.8851466
-0.052609116 -0.01330774 -0.9211796 0.0006945929 0.0032516588 0.2087625 0.062343236 -0.1970309
0.0600936 -0.29198775 0.13415696 0.05454654 -0.051072456 0.077914245 0.13073331 0.19756447
-0.07063529 -0.27141145 -0.16582216 -0.57092875 -0.09503229 0.18952115 0.1374173 -0.1173593
0.24714094 0.029948121 0.08786902 -0.17136577 0.13599485 -0.16726524 -0.0028124547 -0.06060731
0.040528607 0.1389702 0.08680399 -0.08367572 -0.06599027 -0.11685705 0.07319156 0.17971718
0.035976406 -0.02360317 -0.19765106 -0.1389431 0.0044523636 0.056390792 -0.06322249 0.23380499
-0.59068304 -0.32903597 0.07558778 -1.2834232 0.050554898 0.05135232 0.09730345 -0.10509505
-0.15256523 -0.114804395 -0.003171835 0.08927325 0.18459222 0.0371898 -0.07816641 0.03951999
0.03886913 0.060321126 0.013902969 -0.2933114 0.07004834 0.060903113 0.103855245 0.12421392
-0.031525776 -0.05162439 -0.035484158 -0.17067185 -0.4761942 0.00061034964 0.020890875 -0.022183444
-0.120329194 -0.114788696 -0.13939615 -0.2217132 0.153592 -0.5576236 -0.23537734 -0.48732886
-0.13971636 -0.10504175 0.122559436 -0.23412696 -0.30549827 -0.015174723 -0.08760856 -0.12153017
-0.019115476 -0.062409256 0.09862483 -0.0010732836 -0.28985357 0.19971015 -0.038476575 -0.22550693
-0.10197072 -0.3246062 -0.009864411 -0.10832031 0.28145412 -0.19868314 -0.050591808 0.050821368
-0.3442539 -0.07723966 0.09516814 0.091227196 -0.0793856 -0.41595942 0.14444381 0.031442773
-0.42604265 -0.27767342 0.34400004 -0.077120654 0.16875578 -0.33416674 0.08889205 -0.17080599
0.13306713 -0.07363948 0.10682133 -0.24508858 -0.2766584 0.13396542 -0.41033208 -0.44127432
0.10584351 -0.15537241 -0.07208224 -0.17831455 0.10666485 -0.16875961 -0.379497 0.12429449
-0.23679614 -0.8155505 0.05980495 -0.20164081 0.12763903 0.049318023 -0.011560143 0.19034933
0.0144710895 0.045118 0.05906655 -0.048879758 0.010849817 0.06555183 0.06394387 0.014814671
-0.0867123 -0.078605264 -0.29227498 0.064110175 -0.11487722 0.05728107 -0.10020897 0.15174527
-0.04558872 -0.28769046 0.24051534 -0.05640183 0.057288434 0.05386573 -0.20517975 -0.20212802
-0.21402754 -0.1517737 0.2034651 0.16815667 -0.35591915 -0.32047832 -0.44865543 0.18562913
0.08205703 0.0037110941 -0.09103977 -0.15384816 -0.13015473 0.04196588 -0.04846718 -0.03998476
0.027991835 0.07779464 0.15445474 0.18802851 -0.048123017 -0.12721576 -0.4934476 -0.80979913
0.0626429 0.2621169 0.0750105 0.07446056 0.046486918 -0.13631353 -0.035548728 -0.11654759
0.006768851 0.2420314 0.0482475 0.014514728 -0.09742268 -0.07703603 -0.27179617 0.034977175
0.032448653 0.23866975 -0.055663846 0.018891262 0.025660656 -0.19522806 0.023458535 0.12714577
00000000: 680a 5e3e fd84 be3d dc7d 913d b87f a53d
00000010: 25ac b7bd 8fb3 e63d e469 8c3e 1123 31be
00000020: e475 95bd 1506 35bf 4b40 1a3e d837 873d
00000030: 7e6c 183e dfb6 193e bb3b 8dbb 99ee 8b3d
00000040: 9390 c53d d097 cb3c 4f06 c9bc 3301 2b3d
00000050: 782b 92bc 2340 463d f6dc d23c 91fc 223d
00000060: 152b 9f3c 2ced 38bc e3e1 6f3d 24a3 f7bd
00000070: 9240 a6bd d2f4 7bbe 800f a13e f898 62bf
00000080: a87c 57bd b508 5abc 6dd2 6bbf 5715 363a
00000090: c819 553b d6c5 553e 9f5b 7f3d 78c2 49be
000000a0: b524 763d 6b7f 95be 7160 093e 316c 5f3d
000000b0: 5a31 51bd 8191 9f3d f4de 053e 574e 4a3e
000000c0: 3ca9 90bd 71f6 8abe 49cd 29be 6328 12bf
000000d0: 4aa0 c2bd d511 423e 1fb7 0c3e 135a f0bd
000000e0: 8412 7d3e c355 f53c acf4 b33d 827a 2fbe
000000f0: 3c42 0b3e 9447 2bbe 2951 38bb 5f3f 78bd
00000100: 5301 263d 344e 0e3e 4ac6 b13d 2d5e abbd
00000110: e825 87bd c052 efbd 75e5 953d c807 383e
00000120: ff5b 133d 6f5b c1bc 0a65 4abe 1a47 0ebe
00000130: 22e5 913b 08fa 663d cb7a 81bd 936a 6f3e
00000140: 0137 17bf 6777 a8be c4cd 9a3d 3647 a4bf
00000150: a712 4f3d cf56 523d 0847 c73d 133c d7bd
00000160: 0f3a 1cbe 911e ebbd 90de 4fbb e5d4 b63d
00000170: be05 3d3e 5554 183d b615 a0bd b7df 213d
00000180: 3d35 1f3d 4913 773d 47c9 633c e92c 96be
00000190: 8175 8f3d 8b75 793d 0fb2 d43d de63 fe3d
000001a0: 2c21 01bd 1974 53bd d657 11bd 9ac4 2ebe
000001b0: bacf f3be dfff 1f3a 5723 ab3c 0eba b5bc
000001c0: 276f f6bd 5616 ebbd ddbd 0ebe c908 63be
000001d0: 3947 1d3e 6cc0 0ebf c206 71be 2b83 f9be
000001e0: ce11 0fbe 2120 d7bd 7100 fb3d fabe 6fbe
000001f0: 456a 9cbe 679f 78bc 1e6c b3bd cfe4 f8bd
00000200: 0f98 9cbc d9a0 7fbd d1fb c93d 6cad 8cba
00000210: b067 94be d180 4c3e 9d99 1dbd 4aeb 66be
00000220: 06d6 d0bd c932 a6be 579e 21bc 0ad7 ddbd
00000230: c11a 903e 9873 4bbe 5b39 4fbd 112a 503d
00000240: 0c42 b0be d42f 9ebd 84e7 c23d 53d5 ba3d
00000250: eb94 a2bd a2f8 d4be 14e9 133e 23ca 003d
00000260: 4322 dabe 362b 8ebe c620 b03e 6ff1 9dbd
00000270: 51ce 2c3e e717 abbe 090d b63d c4e7 2ebe
00000280: c042 083e 4cd0 96bd 24c5 da3d 80f8 7abe
00000290: 2ba6 8dbe 3b2e 093e 0c17 d2be b5ee e1be
000002a0: 7bc4 d83d f219 1fbe da9f 93bd 1798 36be
000002b0: 1a73 da3d 52cf 2cbe 6e4d c2be 1c8e fe3d
000002c0: b07a 72be ebc7 50bf 09f6 743d ee7a 4ebe
000002d0: ceb3 023e b201 4a3d c166 3dbc efea 423e
000002e0: 2618 6d3c a7cd 383d c4ef 713d 2436 48bd
000002f0: 6ec3 313c 0a40 863d 01f5 823d 3cb9 723c
00000300: 3896 b1bd ccfb a0bd 11a5 95be 324c 833d
00000310: bf44 ebbd 8e9f 6a3d 5c3a cdbd 1d63 1b3e
00000320: 3dbb 3abd 2a4c 93be a749 763e 9b05 67bd
00000330: 47a7 6a3d 50a2 5c3d a41a 52be a6fa 4ebe
00000340: 092a 5bbe 916a 1bbe 2859 503e 4331 2c3e
00000350: 093b b6be bc15 a4be 2ab6 e5be 9015 3e3e
00000360: 840d a83d d435 733b 0f73 babd 5f8a 1dbe
00000370: 4847 05be 6ae4 2b3d 8685 46bd 0fc7 23bd
00000380: 224f e53c cc52 9f3d 6229 1e3e 8c8a 403e
00000390: a41c 45bd d944 02be 2aa5 fcbe ff4e 4fbf
000003a0: ec4a 803d 3034 863e 1b9f 993d c77e 983d
000003b0: 1169 3e3d c695 0bbe 8b9b 11bd 81b0 eebd
000003c0: 3dcd dd3b 14d7 773e 2c9f 453d 2fcf 6d3c
000003d0: 8b85 c7bd 11c5 9dbd de28 8bbe 3a44 0f3d
000003e0: e1e8 043d d865 743e c6ff 63bd d9c1 9a3c
000003f0: 4c36 d23c dde9 47be 1d2c c03c 8032 023e

fc1.bias f4 [64]
-0.0052541164 0.15049258 0.17794771 -0.07385969 -0.078650504 -0.03545134 0.035604708 0.014047308
-0.17842066 0.061137468 -0.10194683 0.014390679 -0.10232893 -0.19453388 -0.091360316 -0.12208437
-0.117650464 0.07887015 0.17457332 -0.050998356 0.070845954 -0.027731197 -0.04245129 -0.053718656
-0.07895567 -0.12089716 -0.09624468 -0.09277494 0.20207238 0.096810214 -0.05828181 -0.07255481
-0.067841776 -0.06463187 -0.076768935 0.058224805 0.07833745 0.014093593 0.21205318 -0.087643825
-0.1794336 0.13551627 -0.20886421 0.023046786 0.062402874 -0.11434355 -0.15303071 0.13161133
-0.22737378 0.1350505 -0.06683162 0.027880438 -0.098592356 -0.03524318 0.056396797 0.07186438
0.19352312 0.10698344 -0.039452408 0.06606162 0.04363024 -0.052868553 0.044389617 -0.1586793
00000000: b92a acbb ba1a 1a3e ed37 363e c043 97bd
00000010: 8413 a1bd 6d35 11bd 3ed6 113d ae26 663c
00000020: e8b3 36be 486b 7a3d 80c9 d0bd e2c6 6b3c
00000030: d491 d1bd e433 47be 1e1b bbbd 5f07 fabd
00000040: baf2 f0bd ac86 a13d 59c3 323e a7e3 50bd
00000050: af17 913d 892c e3bc 67e1 2dbd 1808 5cbd
00000060: 83b3 a1bd ee98 f7bd ee1b c5bd ca00 bebd
00000070: 10ec 4e3e 6f44 c63d e8b8 6ebd 9e97 94bd
00000080: a1f0 8abd b75d 84bd 0839 9dbd 227d 6e3d
00000090: 636f a03d d0e8 663c 7824 593e 9b7e b3bd
000000a0: 71bd 37be c7c4 0a3e 80e0 55be 9dcc bc3c
000000b0: 289a 7f3d f32c eabd 15b4 1cbe 1fc5 063e
000000c0: acd4 68be ae4a 0a3e 04df 88bd 8465 e43c
000000d0: caea c9bd 275b 10bd 5400 673d a22d 933d
000000e0: ed2a 463e 221a db3d d998 21bd 514b 873d
000000f0: 9fb5 323d b28c 58bd e3d1 353d d47c 22be

fc2.weight f4 [128, 64]
-0.015260545 -0.044093076 0.02178396 0.07823122 -0.008880622 0.051023334 0.014640677 0.13460489
0.18223503 0.32694635 0.20608121 -0.09177457 -0.15540405 -0.0059956987 0.25790137 0.1287018
0.0001686611 -0.019707667 0.17149211 0.028722899 0.07127231 0.03144591 0.099264264 -0.1295969
0.22063754 0.089330465 0.09675452 -0.23434833 0.11485401 -0.0195984 0.10250585 0.08780983
-0.070170484 -0.18487558 0.16040999 -0.0057340595 -0.052067503 -0.08280929 0.06296238 -0.10441543
-0.18069895 0.11428006 -0.06824794 -0.116507925 0.18263961 0.06976396 0.036055695 -0.31664675
-0.0381242 -0.0904832 0.08113766 0.0132653015 -0.17042832 -0.041379403 0.05355441 0.06614376
0.07212618 -0.10315307 -0.12535347 0.06769901 -0.187585 0.025020707 0.14174026 -0.10397893
0.042498562 0.13240929 -0.11638354 -0.22338861 -0.013628825 -0.10957331 -0.078873016 0.0020110968
-0.1726477 -0.27729988 -0.4339524 -0.124329895 -0.03444502 -0.09852754 -0.051978476 -0.121992335
0.0056453925 0.11038876 0.21126199 -0.16444363 0.05899121 0.13598439 0.1380899 -0.010701712
-0.113964766 -0.06746869 -0.37781876 0.14353417 0.0082137445 0.08702462 -0.03603821 -0.018697822
-0.08268315 -0.07087649 -0.045632407 -0.14343366 0.026292365 -0.13145943 0.13568339 0.09649745
-0.00677076 0.04059255 0.35468423 -0.16437688 -0.12988174 0.008620838 0.009517718 0.10782577
-0.18338208 0.03632208 -0.39906588 0.08163357 -0.08713824 -0.2348175 -0.43691888 -0.18290825
0.22530955 -0.23398866 0.09192568 0.07169282 -0.09244207 0.0043131905 -0.10247201 -0.048855536
-0.20738758 -0.015461503 0.21020196 0.008181016 -0.056818247 0.06867771 -0.028164562 -0.08546311
0.019045576 -0.006018816 0.026797399 0.23657367 -0.13089879 0.113141485 -0.07679165 -0.13876544
-0.09811721 -0.24364239 -0.43492073 -0.1269444 -0.06744497 0.062374692 0.37226832 -0.07491481
0.04758376 -0.080473185 -0.0024542927 -0.1403773 0.138119 -0.005429688 -0.1888321 -0.013812981
0.1460449 0.05960472 -0.044766303 -0.098285384 0.07192767 0.20309013 -0.04680357 0.07603823
-0.20366101 0.06938431 0.13854061 0.058035236 0.13727978 0.11190422 0.01888409 -0.03338327
0.07359031 -0.14935532 0.14682494 -0.09900633 -0.11647273 -0.22646788 -0.06622741 -0.02751945
-0.05741519 0.023983631 0.10156318 -0.013409995 -0.28913894 -0.12121078 -0.5879811 0.023180656
-0.09097839 0.09966384 -0.16294707 -0.09521068 -0.1026693 0.02858654 0.06777255 0.002317603
0.28553024 -0.11757209 -0.04694864 -0.0020602446 0.04578477 -0.07485505 -0.03565223 -0.039924752
-0.0845575 -0.014384988 -0.09981692 -0.049123295 -0.121390924 -0.08428405 0.024375653 0.014628228
-0.14848477 -0.0404764 0.013763064 0.021022243 0.080216974 -0.13725041 -0.007934714 -0.10307606
0.14718868 -0.18086451 0.097384565 0.043249838 -0.34317446 -0.14974111 -0.28665468 -0.090766594
0.04319913 -0.19287065 -0.21087949 0.095494874 0.053636134 0.07241133 0.04922599 0.035701375
-0.14215446 -0.097334 0.06685747 0.10154831 0.0711787 -0.15058254 -0.034467798 -0.2604147
0.14464097 -0.030452147 -0.08368111 0.0041619455 -0.1070922 0.28113142 -0.060083587 -0.09281543
00000000: 5d07 7abc f19a 34bd 4674 b23c b137 a03d
00000010: 0780 11bc d8fd 503d 73df 6f3c ddd5 093e
00000020: d29b 3a3e 8365 a73e f406 533e 4ef4 bbbd
00000030: 3d22 1fbe 9177 c4bb a60b 843e 68ca 033e
00000040: 9fda 3039 f971 a1bc a19b 2f3e 494c eb3c
00000050: 38f7 913d 6dcd 003d 104b cb3d 0db5 04be
00000060: cfee 613e e4f2 b63d 3c27 c63d 02f9 6fbe
00000070: 9438 eb3d d38c a0bc 96ee d13d a4d5 b33d
00000080: 8bb5 8fbd 0650 3dbe 8442 243e c7e4 bbbb
00000090: bc44 55bd eb97 a9bd 6cf2 803d c2d7 d5bd
000000a0: 2509 39be aa0b ea3d 93c5 8bbd b59b eebd
000000b0: e105 3b3e 68e0 8e3d 23af 133d 861f a2be
000000c0: 1f28 1cbd 424f b9bd 802b a63d b556 593c
000000d0: c384 2ebe 737d 29bd de5b 5b3d 6176 873d
000000e0: e4b6 933d eb41 d3bd a95c 00be c7a5 8a3d
000000f0: 4816 40be 3af8 cc3c 5c24 113e e8f2 d4bd
00000100: f912 2e3d 4d96 073e 7e5a eebd fcbf 64be
00000110: 6f4b 5fbc f967 e0bd 2d88 a1bd 9bcc 033b
00000120: 8fca 30be 40fa 8dbe 022f debe aca0 febd
00000130: 3916 0dbd cfc8 c9bd 62e7 54bd 1ed7 f9bd
00000140: fcfc b83b 8113 e23d 1055 583e e963 28be
00000150: c4a0 713d 7e3f 0b3e 7067 0d3e 3c56 2fbc
00000160: 5c66 e9bd 062d 8abd 7671 c1be 9ffa 123e
00000170: f192 063c f739 b23d cd9c 13bd 2d2c 99bc
00000180: c955 a9bd b127 91bd 0ce9 3abd 46e0 12be
00000190: 1663 d73c 4d9d 06be 96f0 0a3e 74a0 c53d
000001a0: 40dd ddbb 6044 263d 2c99 b53e 6a52 28be
000001b0: b8ff 04be 6a3e 0d3c 34f0 1b3c c2d3 dc3d
000001c0: 83c8 3bbe 76c6 143d 5d52 ccbe 802f a73d
000001d0: 8975 b2bd 0074 70be d5b3 dfbe 4d4c 3bbe
000001e0: 8cb7 663e b99a 6fbe 8843 bc3d afd3 923d
000001f0: 4552 bdbd aa55 8d3b d8dc d1bd be1c 48bd
00000200: 695d 54be 3e52 7dbc 2f3f 573e ab09 063c
00000210: 40ba 68bd e6a6 8c3d 5eb9 e6bc 4807 afbd
00000220: 7805 9c3c 7d39 c5bb 3886 db3c 5e40 723e
00000230: 550a 06be b9b6 e73d f144 9dbd 8718 0ebe
00000240: adf1 c8bd 647d 79be eead debe b6fd 01be
00000250: 9720 8abd 9b7c 7f3d f499 be3e f06c 99bd
00000260: 30e7 423d 20cf a4bd 33d8 20bb 11bf 0fbe
00000270: 116f 0d3e 86eb b1bb 345d 41be d74f 62bc
00000280: cb8c 153e 1424 743d df5c 37bd d949 c9bd
00000290: d04e 933d dcf6 4f3e 1ab5 3fbd eeb9 9b3d
000002a0: 838c 50be 5c19 8e3d 97dd 0d3e 5bb6 6d3d
000002b0: 1293 0c3e 0a2e e53d cfb2 9a3c e5bc 08bd
000002c0: 84b6 963d 9af0 18be 4759 163e d5c3 cabd
000002d0: 4189 eebd 32e7 67be 3da2 87bd 7870 e1bc
000002e0: 312c 6bbd 5279 c43c 5b00 d03d 98b5 5bbc
000002f0: 050a 94be 5c3d f8bd ee85 16bf 5ce5 bd3c
00000300: e152 babd 8e1c cc3d 99db 26be d1fd c2bd
00000310: 4844 d2bd 522e ea3c 56cc 8a3d ede2 173b
00000320: 0531 923e a3c9 f0bd 384d 40bd 2b05 07bb
00000330: d088 3b3d 9b4d 99bd 1308 12bd 2388 23bd
00000340: 7c2c adbd 03af 6bbc d06c ccbd 8235 49bd
00000350: ce9b f8bd 1e9d acbd 73af c73c 3cab 6f3c
00000360: 640c 18be 95ca 25bd 797e 613c d736 ac3c
00000370: cc48 a43d 5f8b 0cbe 9a00 02bc 8b19 d3bd
00000380: a1b8 163e 8c34 39be 8f71 c73d be26 313d
00000390: 90b4 afbe bc55 19be 67c4 92be d6e3 b9bd
000003a0: 92f1 303d e27f 45be cbf0 57be d192 c33d
000003b0: 90b1 5b3d 644c 943d 31a1 493d 9b3b 123d
000003c0: f090 11be 0c57 c7bd 92ec 883d 8ff8 cf3d
000003d0: 23c6 913d 4f32 1abe 1b2e 0dbd 1355 85be
000003e0: c31c 143e c876 f9bc 0061 abbd ee60 883b
000003f0: 2853 dbbd 75f0 8f3e 351a 76bd 0416 bebd

fc2.bias f4 [128]
-0.105583146 0.069053724 -0.12281214 -0.0689602 -0.014616992 0.15074466 0.25239635 -0.0651876
-0.043174278 0.1382602 0.029076707 -0.064074725 -0.05173691 0.012295571 0.046192255 -0.16369195
0.027140379 0.1591028 -0.0025972037 0.06803833 -0.04811169 0.10500955 0.059135325 -0.004941618
-0.09550364 -0.029384349 -0.13459931 0.010085682 -0.099654764 -0.018612629 -0.014667586 0.16153736
-0.034115523 0.07637457 0.06708809 -0.024954075 -0.036697242 -0.15237254 -0.19909163 0.077803165
-0.060470212 -0.012832719 -0.0050199376 0.118601955 0.068385735 -0.036294296 0.08042277 0.027281856
0.055607535 -0.10054952 -0.13393287 0.16014324 -0.004870431 -0.1305645 0.029112289 -0.12843844
0.05168203 -0.150471 0.17300968 -0.14751801 -0.06640511 0.11641756 0.053677384 -0.083325036
0.12170297 -0.022408683 0.051205732 0.13229953 0.036644038 -0.10725093 0.18467015 0.0369248
-0.014372397 -0.09452834 -0.06813286 0.07818144 0.08468965 -0.039212108 -0.015190418 0.09382573
0.11910749 -0.023508526 0.19115606 0.069024324 0.10179338 0.039986957 0.18739137 0.13336441
-0.038207337 -0.04609193 -0.15410548 -0.15761364 -0.08306883 -0.0437056 0.032869093 -0.038543183
-0.03754092 -0.0037269304 -0.0057866843 0.037689865 -0.087328486 0.14127736 0.06483752 0.10541914
0.15259337 -0.06265961 -0.015497801 -0.08666653 0.03725029 -0.17018764 0.0882084 -0.07834463
0.11298878 -0.080002636 0.12444452 0.02275438 -0.03266058 0.084340245 0.0897053 -0.004473017
-0.004521134 0.013465891 -0.12655169 -0.065090254 0.12114634 0.22144932 -0.052425615 -0.034783985
00000000: fa3b d8bd 0a6c 8d3d ee84 fbbd 013b 8dbd
00000010: 1c7c 6fbc cf5c 1a3e 183a 813e 1481 85bd
00000020: 83d7 30bd 1594 0d3e 4632 ee3c 9c39 83bd
00000030: 15ea 53bd 5d73 493c 1734 3d3d dd9e 27be
00000040: 8055 de3c d8eb 223e d935 2abb ae57 8b3d
00000050: c310 45bd 3f0f d73d e237 723d 4ced a1bb
00000060: 6a97 c3bd 72b7 f0bc 67d4 09be 6b3e 253c
00000070: cc17 ccbd 8379 98bc 5150 70bc 0d6a 253e
00000080: b8bc 0bbd 456a 9c3d 7b65 893d 7d6c ccbc
00000090: d94f 16bd 8c07 1cbe adde 4bbe 4457 9f3d
000000a0: 9daf 77bd 5340 52bc 4a7e a4bb 95e5 f23d
000000b0: d20d 8c3d 54a9 14bd b1b4 a43d 337e df3c
000000c0: bac4 633d e8ec cdbd b325 09be 97fc 233e
000000d0: 2398 9fbb b3b2 05be e57c ee3c 5e85 03be
000000e0: 89b0 533d 1215 1abe 7329 313e f60e 17be
000000f0: 67ff 87bd 546c ee3d d1dc 5b3d 51a6 aabd
00000100: 683f f93d 6a92 b7bc 1abd 513d 8779 073e
00000110: 0f18 163d 60a6 dbbd 2c1a 3d3e 763e 173d
00000120: 347a 6bbc 1398 c1bd 3e89 8bbd 971d a03d
00000130: c471 ad3d e09c 20bd 3be1 78bc b427 c03d
00000140: a1ee f33d f494 c0bc 6abe 433e a05c 8d3d
00000150: 0c79 d03d 5dc9 233d 86e3 3f3e ae90 083e
00000160: 4c7f 1cbd e4ca 3cbd d4cd 1dbe 7865 21be
00000170: fe1f aabd a504 33bd bea1 063d 75df 1dbd
00000180: 82c4 19bd 843f 74bb 3a9e bdbb b060 1a3d
00000190: 47d9 b2bd 03ab 103e 89c9 843d fde5 d73d
000001a0: 7041 1c3e ae53 80bd 7dea 7dbc 397e b1bd
000001b0: c393 183d ab45 2ebe 9ba6 b43d 2673 a0bd
000001c0: a966 e73d 6cd8 a3bd c5dc fe3d 6567 ba3c
000001d0: 1ac7 05bd 94ba ac3d 6ab7 b73d 6392 92bb
000001e0: 0526 94bb 0aa0 5c3c c496 01be 0a4e 85bd
000001f0: 931b f83d 9cc3 623e 3ebc 56bd a779 0ebd

fc3.weight f4 [64, 128]
0.07820058 0.034614366 0.09474342 0.046124708 0.012376325 0.18708263 -0.11058072 -0.2831848
0.29620597 -0.118113786 -0.06373945 0.0036569268 0.112631716 -0.32228976 0.035238493 0.005716216
-0.12824206 -0.07345683 -0.12616974 0.05914248 -0.40127033 -0.05463025 -0.022873838 -0.054696083
-0.029184487 0.13199896 0.061246872 0.18797198 -0.18347475 -0.18392548 0.20536503 -0.22383368
0.06643925 -0.3317067 0.023076132 -0.13648504 0.113274194 -0.26315212 0.07325497 -0.0011508323
-0.009191847 0.37592104 -0.19415124 0.035761546 0.17538778 0.34928137 0.22117865 0.21515717
-0.04652668 -0.0095082 0.09414709 -0.054347593 0.098867774 0.12802368 0.059154514 0.11770113
-0.16064076 -0.06675528 -0.05130328 -0.04005882 0.25789917 -0.042428795 0.00050323247 0.05178742
-0.044469774 0.1304308 0.07024029 -0.0858665 -0.26883715 -0.038625337 -0.11284168 -0.074460074
-0.14626975 0.06772132 -0.4224493 -0.032164138 -0.19593948 -0.19433254 0.0888432 0.09328053
-0.18842746 -0.18342894 -0.0018994815 -0.13757923 0.22009876 -0.20046197 0.13010381 0.04303104
-0.15674572 -0.031235654 0.013462493 -0.07616026 0.006599318 0.043007176 0.17918043 0.006349794
0.25998965 -0.0062919324 0.14861302 -0.16759364 0.18625002 0.01746579 0.14105204 0.04667377
-0.22127204 -0.062281765 0.018063651 0.102383405 0.040679682 -0.2780685 0.027466657 -0.0820578
0.080718845 -0.014090984 -0.09270073 0.13633896 0.22184987 0.11799568 0.07005954 -0.07507297
-0.0150320195 -0.0081299255 -0.06854097 0.035841778 0.050722133 -0.009537476 -0.2357919 0.00049894676
0.21456544 -0.27687818 -0.15554821 -0.061341293 -0.047601487 -0.14431633 -0.10893563 -0.0902229
-0.067859516 0.062125515 0.18877831 0.14246406 -0.16312465 0.020047449 0.20666334 -0.2502751
0.15693007 -0.15620686 -0.23893794 -0.081490025 0.016145792 -0.023051204 -0.42773837 0.07391323
0.24321026 0.025890198 -0.16002159 -0.04207142 -0.17000906 -0.062802486 0.16374917 -0.17322387
0.01972877 0.4135079 0.016740886 0.12674709 0.24454114 0.2529656 -0.3062122 -0.32729098
0.23839091 0.172587 -0.019747743 -0.04232391 -0.18296526 -0.3042875 -0.015315748 0.16613322
-0.113756515 -0.11267163 -0.026205853 -0.11680709 -0.20957215 -0.22416297 0.21173872 -0.08668861
-0.04409667 -0.4691317 0.03594955 0.08629792 -0.10431375 0.006773824 0.04356991 -0.036727615
0.22048445 -0.23929054 0.13103372 -0.20120318 -0.16699766 -0.07147486 0.26518542 -0.06967955
0.1945013 0.080126956 -0.1889573 0.15271494 -0.15351097 0.111957796 0.096512675 0.11057297
-0.2378551 0.037373837 0.07235945 0.45939985 -0.22037654 0.06789335 -0.28531876 0.149232
-0.3818544 -0.31027916 -0.023832314 0.12759961 -0.044608686 -0.00879321 0.11337306 0.16854003
0.026928442 -0.33540276 -0.020677824 -0.31777546 -0.08911222 -0.07574866 0.08777732 -0.079782106
-0.07141409 -0.0119127 -0.054154273 -0.063570336 -0.017952712 0.037543397 -0.00092734274 0.06444386
-0.039268717 0.20310932 -0.075929806 0.015155717 -0.00091789576 -0.48023772 0.16503295 -0.00631382
0.1397567 -0.044930633 -0.07345518 0.29262063 0.0038842177 -0.32039985 0.05990283 0.06252487
00000000: a027 a03d cbc7 0d3d d708 c23d 43ed 3c3d
00000010: 12c6 4a3c 9792 3f3e 2578 e2bd 99fd 90be
00000020: 4fa8 973e a4e5 f1bd d489 82bd 0da9 6f3b
00000030: 75ab e63d 2a03 a5be 3d56 103d 184f bb3b
00000040: e351 03be 8970 96bd a432 01be 633f 723d
00000050: 4e73 cdbe f8c3 5fbd ea61 bbbc 0009 60bd
00000060: 4e14 efbc bc2a 073e 00de 7a3d ba7b 403e
00000070: cee0 3bbe f656 3cbe 364b 523e a834 65be
00000080: 4d11 883d 76d5 a9be 280a bd3c bcc2 0bbe
00000090: 4dfc e73d e0bb 86be b406 963d 86d7 96ba
000000a0: 6799 16bc b978 c03e 95cf 46be b37a 123d
000000b0: db98 333e 02d5 b23e a87c 623e 2952 5c3e
000000c0: c392 3ebd 48c8 1bbc 31d0 c03d 959b 5ebd
000000d0: 307b ca3d a418 033e 014c 723d 4a0d f13d
000000e0: 037f 24be feb6 88bd 6323 52bd b814 24bd
000000f0: 5c0b 843e d1c9 2dbd 5ceb 033a 0c1f 543d
00000100: f025 36bd a78f 053e 24da 8f3d c7da afbd
00000110: 06a5 89be 9a35 1ebd 8a19 e7bd 867e 98bd
00000120: bdc7 15be 7ab1 8a3d 464b d8be 8bbe 03bd
00000130: 5ca4 48be 1cff 46be 6cf3 b53d dd09 bf3d
00000140: 21f3 40be ccd4 3bbe 06f8 f8ba 92e1 0cbe
00000150: 9261 613e e745 4dbe ef39 053e 5141 303d
00000160: f381 20be eae1 ffbc ca91 5c3c e9f9 9bbd
00000170: 173f d83b 4b28 303d 137b 373e ef11 d03b
00000180: 5d1d 853e 8e2c cebb 032e 183e ab9d 2bbe
00000190: 53b8 3e3e 6b14 8f3c f26f 103e ff2c 3f3d
000001a0: 2395 62be 2a1b 7fbd 39fa 933c 64ae d13d
000001b0: bd9f 263d ff5e 8ebe c101 e13c eb0d a8bd
000001c0: ec4f a53d dfdd 66bc e1d9 bdbd 719c 0b3e
000001d0: 9d2c 633e b8a7 f13d 607b 8f3d dbbf 99bd
000001e0: dc48 76bc 6133 05bc 355f 8cbd d4ce 123d
000001f0: 03c2 4f3d 1343 1cbc 6f73 71be c0cb 023a
00000200: 0bb7 5b3e fac2 8dbe 0848 1fbe 0241 7bbd
00000210: c7f9 42bd a9c7 13be a519 dfbd c9c6 b8bd
00000220: eef9 8abd 5377 7e3d 1a4f 413e 19e2 113e
00000230: 260a 27be 8c3a a43c 8e9f 533e 0f24 80be
00000240: 47b2 203e b1f4 1fbe 26ac 74be 3ee4 a6bd
00000250: 2e44 843c e1d5 bcbc 8600 dbbe d25f 973d
00000260: 1c0c 793e ae17 d43c b3dc 23be 1553 2cbd
00000270: db16 2ebe 979e 80bd ddad 273e 9961 31be
00000280: 3b9e a13c 4fb7 d33e 2f24 893c fdc9 013e
00000290: fe68 7a3e b584 813e d8c7 9cbe af92 a7be
000002a0: bf1c 743e a6ba 303e 05c6 a1bc d65b 2dbd
000002b0: 3f5b 3bbe 92cb 9bbe e7ee 7abc d41e 2a3e
000002c0: 2df9 e8bd 62c0 e6bd a8ad d6bc 8e38 efbd
000002d0: 159a 56be fa8a 65be 09d2 583e cc89 b1bd
000002e0: b69e 34bd 0832 f0be d63f 133d f7bc b03d
000002f0: 73a2 d5bd f4f6 dd3b 5d76 323d b26f 16bd
00000300: adc6 613e 9408 75be b42d 063e 3508 4ebe
00000310: 6f01 2bbe 6961 92bd 62c6 873e 27b4 8ebd
00000320: 592b 473e 9a19 a43d 067e 41be 4e61 1c3e
00000330: fb31 1dbe 214a e53d 70a8 c53d 1574 e23d
00000340: 4a90 73be 4f15 193d 3131 943d 7536 eb3e
00000350: 63aa 61be ab0b 8b3d 4d15 92be 46d0 183e
00000360: 6b82 c3be e9dc 9ebe fc3b c3bc 79a9 023e
00000370: 99b7 36bd 6511 10bc 2330 e83d c295 2c3e
00000380: 0999 dc3c e9b9 abbe 8a64 a9bc 77b3 a2be
00000390: 7880 b6bd 1d22 9bbd 98c4 b33d cd64 a3bd
000003a0: 8d41 92bd 7c2d 43bc dfd0 5dbd 2a31 82bd
000003b0: 9111 93bc 1bc7 193d eb18 73ba 24fb 833d
000003c0: 3cd8 20bd e4fb 4f3e 1681 9bbd af4f 783c
000003d0: f19e 70ba b8e1 f5be 66fe 283e 29e4 cebb
000003e0: 611c 0f3e 2f09 38bd ab6f 96bd 5fd2 953e
000003f0: 5c8e 7e3b 730b a4be ab5c 753d 0a0d 803d

fc3.bias f4 [64]
-0.11663551 -0.014411382 0.15816328 0.3983608 0.0109506175 -0.07649006 0.30430618 -0.0058428925
0.33732116 0.011202461 -0.0895803 0.44131875 -0.015919454 0.030008398 -0.20505404 -0.020888647
0.11459207 0.10032422 0.04531362 -0.010449714 -0.09157962 0.3634773 -0.038907908 0.00663807
-0.21650489 -0.04903817 0.008176534 -0.10135712 0.012671174 0.14294136 -0.112755276 -0.0014002881
0.011877204 0.2509512 -0.10229293 -0.015203905 0.019025555 0.28645837 -0.06857338 0.083953865
-0.055071123 -0.0960997 0.31581062 0.47222275 0.0071134344 -0.08476778 0.20845146 0.03822782
-0.09036592 0.01581845 0.18394734 0.14012977 0.020781731 0.17250198 0.18145466 -0.0145677095
-0.0922333 -0.15732099 -0.089675516 -0.086005144 -0.15613014 0.3909656 0.00286023 0.34294906
00000000: 99de eebd b81d 6cbc 8ef5 213e f2f5 cb3e
00000010: 386a 333c d2a6 9cbd 05ce 9b3e bc75 bfbb
00000020: 5cb5 ac3e 878a 373c e075 b7bd 88f4 e13e
00000030: 8469 82bc 2cd4 f53c b0f9 51be ab1e abbc
00000040: 3faf ea3d c976 cd3d c69a 393d 4735 2bbc
00000050: 198e bbbd b219 ba3e e65d 1fbd 2b84 d93b
00000060: 75b3 5dbe 40dc 48bd dff6 053c 5294 cfbd
00000070: c19a 4f3c 385f 123e 3dec e6bd df89 b7ba
00000080: 9b98 423c ad7c 803e f57e d1bd cd19 79bc
00000090: 7bdb 9b3c acaa 923e 3370 8cbd 01f0 ab3d
000000a0: 4292 61bd ebcf c4bd eeb1 a13e 2ec7 f13e
000000b0: d017 e93b bb9a adbd 4d74 553e c694 1c3d
000000c0: c411 b9bd b295 813c b15c 3c3e 2e7e 0f3e
000000d0: 733e aa3c 5ca4 303e 40cf 393e 67ad 6ebc
000000e0: d0e4 bcbd c118 21be cca7 b7bd 7723 b0bd
000000f0: 94e0 1fbe a52c c83e b272 3b3b 0597 af3e

fc4.weight f4 [4, 64]
0.0034185925 -0.41081005 0.084605075 0.2103662 0.43021017 0.22170459 0.15947829 0.23836619
0.1816974 0.07582895 -0.0862178 0.18708993 0.0083405385 -0.14118561 -0.24469742 0.043044224
0.3433019 -0.65098083 0.18457472 0.23427865 0.03991323 0.21707483 -0.08699983 0.10928218
-0.16770062 0.27460307 -0.0145570915 -0.12846346 0.019236391 0.15807815 -0.15955792 -0.05953332
0.46485302 0.085552774 -0.05979283 0.031199854 0.06049983 0.048842415 0.119735226 0.42198303
-0.13301511 -0.077373795 0.16169424 0.21074393 0.086820826 -0.024537513 -0.044854082 -0.18714558
-0.18531464 -0.008272434 0.23204699 0.19523266 0.023580277 0.11167757 0.17618728 0.34037983
0.12910117 -0.21644923 -0.22884709 0.017103309 -0.16768156 0.100885905 0.1485843 0.11684516
-0.15572882 -0.13788766 0.18210186 0.06088378 0.22400299 0.12709512 0.17987193 0.31478
0.12202925 0.19899572 0.08938204 0.122051984 -0.08502703 0.10828025 -0.23065743 0.35141677
0.3156399 -0.06701563 0.14386536 0.2764878 -0.0378633 0.17542231 0.07959805 0.1334132
-0.13261613 0.29786444 -0.4999915 -0.39043492 0.12276964 0.07073288 -0.23969497 -0.050635383
0.14600584 0.06650631 -0.075076625 -0.24167013 0.0500854 0.17494799 0.1471489 0.022836685
0.18931754 -0.14578864 0.01927104 0.22595483 -0.36908397 -0.08596176 0.06210882 0.11985358
-0.090176746 0.14470112 0.19982761 0.087554805 0.3081499 0.17497803 0.29445028 0.34353447
-0.0626027 -0.1147393 -0.11689272 0.19195338 -0.063581996 0.10944214 -0.3395638 0.22541147
-0.23840646 -0.23496485 0.1398231 0.14506546 0.2937931 0.37256932 0.053710863 -0.23895273
0.16755842 0.2973761 -0.024578232 0.20564827 -0.009799981 -0.31506395 -0.21380338 -0.18880463
0.24393702 -0.20867898 -0.114587 0.20276046 -0.09624513 0.0039298637 0.0326781 0.48538265
-0.051207963 0.39289522 -0.3941189 0.0007060588 0.26753575 0.21990626 -0.16799815 -0.090901405
0.14757606 0.13068004 0.08117207 -0.11480874 0.0537525 0.1357159 -0.15474753 0.4380534
-0.42461985 -0.2568339 0.11883691 0.2378717 0.44592944 -0.062709734 0.22968435 0.10478599
-0.43595058 -0.08873875 0.16163851 -0.014105518 -0.17538123 0.052420564 -0.044324134 -0.0076736873
-0.13026625 0.08697323 0.2593257 -0.607137 0.16085775 0.2164614 0.010496118 0.17340298
0.15464169 -0.3484975 0.2008704 0.16770686 0.23207632 -0.22687657 0.048885666 0.52361196
0.035529163 -0.16806407 -0.36863834 0.23799214 -0.038040727 0.20003419 -0.19796231 0.15893489
0.22879568 -0.20629658 -0.039875347 0.20472626 -0.101031736 0.17081295 -0.18459468 0.08066833
-0.26623932 -0.12885647 -0.052405633 0.21318072 0.12318382 0.22176483 -0.17613937 0.0231503
0.037530985 0.064794384 -0.045007154 -0.42820245 0.36070132 0.20135078 -0.25448555 0.017503059
-0.1197663 -0.23154742 0.07747764 0.115812086 0.09550012 0.11338709 0.20795178 -0.10310982
-0.0034331407 -0.39222145 0.20170377 -0.10472831 0.338132 0.096362054 -0.0034086986 0.47903788
-0.25356078 0.109542325 0.12145745 0.19628307 -0.04867218 0.20645279 -0.1527324 0.053027
00000000: 770a 603b b255 d2be 6d45 ad3d 3d6a 573e
00000010: 8244 dc3e 8706 633e 474e 233e 4416 743e
00000020: e20e 3a3e 354c 9b3d f592 b0bd 8194 3f3e
00000030: c1a6 083c f692 10be f691 7abe 244f 303d
00000040: 44c5 af3e aea6 26bf 2801 3d3e bee6 6f3e
00000050: 0e7c 233d dd48 5e3e f82c b2bd 56cf df3d
00000060: b6b9 2bbe c698 8c3e de80 6ebc ed8b 03be
00000070: a395 9d3c 3ddf 213e 2763 23be 36d9 73bd
00000080: 3701 ee3e 4b36 af3d 54e9 74bd d696 ff3c
00000090: abce 773d fc0e 483d be37 f53d 290e d83e
000000a0: 1d35 08be 2776 9ebd 2d93 253e 42cd 573e
000000b0: 1ecf b13d e502 c9bc eab8 37bd 17a3 3fbe
000000c0: 1fc3 3dbe 1a89 07bc ba9d 6d3e 12eb 473e
000000d0: 6d2b c13c 36b7 e43d 706a 343e 4446 ae3e
000000e0: 1933 043e dea4 5dbe e456 6abe 3d1c 8c3c
000000f0: b7b4 2bbe 459d ce3d 7c26 183e 844c ef3d
00000100: 6077 1fbe 6c32 0dbe e978 3a3e 4561 793d
00000110: 0a61 653e 3925 023e 5930 383e d82a a13e
00000120: 79ea f93d 89c5 4b3e ee0d b73d 64f6 f93d
00000130: a722 aebd 09c2 dd3d 7631 6cbe e6ec b33e
00000140: 8e9b a13e 7e3f 89bd 7151 133e cf8f 8d3e
00000150: 8c16 1bbd e8a1 333e 4d04 a33d 789d 083e
00000160: 86cc 07be b081 983e e3fe ffbe 16e7 c7be
00000170: a66e fb3d 66dc 903d 9972 75be 0c67 4fbd
00000180: 8e82 153e 7634 883d c6c1 99bd 6078 77be
00000190: 5926 4d3d 9125 333e 34ae 163e 0014 bb3c
000001a0: 75dc 413e 9e49 15be 4dde 9d3c b460 673e
000001b0: 93f8 bcbe b80c b0bd d165 7e3d cb75 f53d
000001c0: 96ae b8bd 882c 143e 9c9f 4c3e ef4f b33d
000001d0: d3c5 9d3e 712d 333e 30c2 963e c0e3 af3e
000001e0: d835 80bd 70fc eabd 7365 efbd 6d8f 443e
000001f0: 4737 82bd 3323 e03d 4edb adbe 44d2 663e
00000200: d320 74be a09a 70be c92d 0f3e 0a8c 143e
00000210: 0d6c 963e 68c1 be3e ecff 5b3d 06b0 74be
00000220: 6f94 2b3e ae41 983e 4a58 c9bc 7695 523e
00000230: 1990 20bc 1050 a1be 46ef 5abe 0056 41be
00000240: a0ca 793e f1af 55be 97ac eabd 70a0 4f3e
00000250: 2b1c c5bd 16c6 803b 79d9 053d 1384 f83e
00000260: 71bf 51bd 9029 c93e f4c9 c9be ce16 393a
00000270: 72fa 883e 1b2f 613e b507 2cbe 842a babd
00000280: 2e1e 173e fdd0 053e 8b3d a63d d820 ebbd
00000290: 952b 5c3d 1cf9 0a3e 2376 1ebe 8948 e03e
000002a0: c667 d9be bc7f 83be c460 f33d a494 733e
000002b0: dd50 e43e f66d 80bd 6032 6b3e 0a9a d63d
000002c0: ea34 dfbe a9bc b5bd 9184 253e d51a 67bc
000002d0: 2397 33be f2b6 563d 398d 35bd 8e73 fbbb
000002e0: 8464 05be 051f b23d 57c6 843e 556d 1bbf
000002f0: e5b7 243e 0fa8 5d3e e9f7 2b3c 8d90 313e
00000300: 645a 1e3e 446e b2be f8b0 4d3e 59bb 2b3e
00000310: 6aa5 6d3e 5552 68be 563c 483d 6f0b 063f
00000320: 0787 113d fd18 2cbe 2abe bcbe 36b4 733e
00000330: 98d0 1bbd c3d5 4c3e a2b6 4abe d4bf 223e
00000340: 6a49 6a3e 693f 53be 5554 23bd c3a3 513e
00000350: bae9 cebd 97e9 2e3e 6306 3dbe 7035 a53d
00000360: 8550 88be f3f2 03be 4aa7 56bd 0c4c 5a3e
00000370: cc47 fc3d 5216 633e e15d 34be b3a5 bd3c
00000380: 17ba 193d ebb2 843d 6c59 38bd 5a3d dbbe
00000390: d8ad b83e e62e 4e3e ee4b 82be 9362 8f3c
000003a0: 0948 f5bd c41a 6dbe 99ac 9e3d e32e ed3d
000003b0: 9195 c33d 7e37 e83d 50f1 543e 3e2b d3bd
000003c0: 8bfe 60bb 40d1 c8be 6f8b 4e3e cc7b d6bd
000003d0: a31f ad3e 7859 c53d 7964 5fbb 7444 f53e
000003e0: b8d2 81be ba57 e03d afbe f83d 6efe 483e
000003f0: 7b5c 47bd 5c68 533e e265 1cbe d732 593d

fc4.bias f4 [4]
0.17716146 0.21805698 0.14854598 0.26622984
00000000: d069 353e 544a 5f3e 701c 183e 474f 883e
